src/best_hex_model.pth (torch, 81018 bytes, 16 tensors)

net.0.weight f4 [128, 52]
00000000: 54a5 a43d 3f32 7cbd 23bd 92bd f4a3 403d
00000010: e35c 8ebd fa3a 033e 3854 74bd c8f4 0c3d
00000020: fd29 063e c63c 403d e611 283e 8767 543c
00000030: 0d95 9d3d 6e8c bf3d 1b35 9c3d 5f65 b43d
00000040: 362d 81bd 3ecb 60bc 8b56 233e 2161 5cbd
00000050: 5695 643c a63e d8bc cb09 ea3c 7e52 e73d
00000060: 049c 6d3d c125 d73d 936c 59bd 3901 923d
00000070: 4725 01be e395 0abe 56c3 e8bd af36 95bd
00000080: 9ff8 f639 1240 b8bd 39a7 27be 99bf 96bc
00000090: 1c3d febd 7f08 923d 2129 2cbe ecd0 fd3d
000000a0: 37b1 35be a8d1 443d 8b89 293b 9829 99bd
000000b0: 93f0 02bd 627d 08be 561c e1bd d76e a3bd
000000c0: 2154 bcbd cd8e 313d 6829 873d a77f 933d
000000d0: e39c 7ebd 508a fd3b 5474 9d3d 1eac 7f3d
000000e0: a910 63bc 6ac7 2fbd 9f0b 3ebe b937 1c3d
000000f0: 42c4 8ebd 00d0 c3bd cba8 8fbb a9fe 50bc
00000100: da00 7ebd 89b8 de3b 6156 72bc 6438 0d3d
00000110: 864d 36bd 13cb 8cbb 5092 b6bc 8bb6 b23c
00000120: 9216 733d 3224 e9bd cec0 bb3c 6a3a 963d
00000130: 9af3 13be 5ac0 83bd 19c7 8e3d 61a9 a2bd
00000140: 6375 0dbe 9733 d33d 5cfa bc3d 51d7 d43d
00000150: 2ad2 11be 6634 3b3d 413d f7bd abd2 713c
00000160: a6b2 ff3d 1ba2 b1bc 029c 483e a8e8 a43b
00000170: a40a 7f3d d208 f03c 955f 04bd eaa5 a23d
00000180: 5cd0 d5bd e034 203c e7f9 f6bc ab46 d13d
00000190: 4226 c3bd 6c36 f13d fb14 d73b f6d1 87bc
000001a0: 8a62 f33c 5fc5 0b3d 7044 fdbd b674 243d
000001b0: 7537 873d 9afb 2c3c 08cf 9c3b 50fb 8cbd
000001c0: 195c b83d 57af 9d3d da10 413b c459 553e
000001d0: cf67 d3bd 3c5d e9bb 4ba4 0abe c9da 703d
000001e0: ca0e 11be 67bf ce3a 6a3b d23d 142d f63d
000001f0: b974 023c 1b53 51bd 01b0 89bd 4a79 90bd
00000200: b149 d33b c62b 843c 36ca 0c3e e17c 573c
00000210: 4843 bbba db8f 45bd 7f04 543d 8ebe 52bc
00000220: 6ba0 d5bd 934c 803d 2001 d13c ee4f d23d
00000230: bc9b 89bd 3e81 b7bc bc62 e53c 3b60 01be
00000240: c290 36bd ee25 71bb 8421 e8bc 2bb0 e0bd
00000250: 081e 643d f7a9 313b 3e38 143b 7fdf 7b3d
00000260: e915 1ebe c33c e13d f395 d43d 1a6e 8c3c
00000270: 1039 7f3c 58ac 2a3d 2e0c b43d 8814 77bd
00000280: 0900 9ebc d9c6 a73b befc ebbd c921 d03d
00000290: dc88 e5bd 596f 6d3d ea27 c9bd fc35 e4bb
000002a0: 535b 11bd bd71 17bd 3c65 84bd 3013 8e3d
000002b0: 0bd5 68bd e2d8 12bb 9529 8d3d ad16 83bd
000002c0: 404f df3d c598 72bc 686c c5bd 3452 1cbe
000002d0: fe01 18bc a97d 26bc 018b 09be 20eb 773d
000002e0: 8ffc 053d 0ae9 273d 03a1 91bd 1bab 013e
000002f0: 9b1f 883d 9c68 1ebe 6704 b4bd 1bdd 9cbd
00000300: 36cd 1a3e c3a8 dfbd 7e74 203e 311e 72bd
00000310: bc27 1b3d df9b 1e3e c5dd fc3c 5089 e4bd
00000320: bf14 f13d f2e5 a43d 44db 24bd 6841 52bd
00000330: e2e1 eebb 3881 133e c505 e2bc 7fb9 aabd
00000340: 1bbf edbc 9826 dabd f186 81bd fe3b 14bc
00000350: 950a 393d 3d54 d93c a602 bf3d cbf3 7e3d
00000360: e45b aebd 2ccb 25bd 180e 2cbe b5bd 103d
00000370: a4be c4bb ca86 42bd 3588 91bb 2896 5fbd
00000380: 6ef8 d1bc 7ccc 8abd bc3f c23d e2b2 0ebd
00000390: e5e1 2ebd d651 35bd 452a e0bc eae0 4ebc
000003a0: d85f 023c 3ea5 893d 1e25 5e3d 392a 2fbe
000003b0: 621b f2bc 507c bebd b660 a8bd 92a4 debd
000003c0: 529d 37bc 81de d5bd 61c5 06bc d5b0 9abd
000003d0: 8c29 0d3e 867f c43d c619 723d d2e1 b33d
000003e0: ca6c 003e c291 bb3d 10d9 8d3c 6ede 9f3d
000003f0: baf1 c73d 09df a9bd 2155 1dbd e2fd aabd
0.08039346 -0.061571356 -0.07164981 0.047031358 -0.069513105 0.12815467 -0.05965063 0.03441313
0.13101955 0.046932958 0.16413078 0.012964136 0.07694445 0.09352957 0.076273166 0.088083975
-0.063074514 -0.013720332 0.15950982 -0.053803567 0.01395162 -0.02639706 0.028569123 0.11295031
0.058010116 0.10505248 -0.05308206 0.071291395 -0.12611876 -0.1353374 -0.113653824 -0.07285821
0.00047106014 -0.089965954 -0.16372384 -0.018401908 -0.124139994 0.07130527 -0.16812564 0.12393364
-0.17743383 0.048051506 0.0025869336 -0.074786365 -0.03196771 -0.1332908 -0.10991733 -0.079801254
-0.09195734 0.043349076 0.065996945 0.07202082 -0.062161338 0.0077374354 0.076882035 0.062420003
-0.013858953 -0.042914785 -0.1855912 0.03813908 -0.06971027 -0.09561157 -0.0043841354 -0.012756028
-0.06201253 0.0067969006 -0.014791102 0.034477606 -0.044507526 -0.0042966693 -0.022286564 0.021815559
0.059347697 -0.11383857 0.022919085 0.0733536 -0.14448395 -0.064331725 0.069715686 -0.07942463
-0.1381431 0.10312574 0.0922744 0.10392631 -0.14240327 0.045704268 -0.1207223 0.0147597
0.12485246 -0.021683743 0.19590762 0.0050326176 0.062266007 0.02930108 -0.032317717 0.07941802
-0.10440132 0.009778231 -0.03014846 0.10218557 -0.095287815 0.11777958 0.0065637804 -0.01657961
0.029710073 0.034123775 -0.12366569 0.040150367 0.066023745 0.010558033 0.0047854222 -0.068838716
0.09001941 0.07699459 0.0029459507 0.20835024 -0.10322534 -0.00712171 -0.13539235 0.0588024
-0.14165798 0.0015773595 0.102652386 0.12020317 0.007962399 -0.051104646 -0.06723023 -0.07054384
0.0064479937 0.016134154 0.13749012 0.013152332 -0.0014287019 -0.048232894 0.0517621 -0.012862815
-0.10430988 0.062646054 0.025513232 0.10269152 -0.06719157 -0.022400495 0.028001182 -0.12634365
-0.044571646 -0.003679629 -0.028336294 -0.109711014 0.055692703 0.0027109364 0.002261653 0.06149244
-0.15438046 0.109979175 0.10380163 0.017142344 0.01557757 0.041668266 0.087913856 -0.060322315
-0.019287126 0.00512014 -0.11522816 0.10162694 -0.112077445 0.057967518 -0.09822066 -0.0069644433
-0.035487484 -0.036973704 -0.064646214 0.069372535 -0.0568438 -0.0022407104 0.06892697 -0.064008094
0.109037876 -0.014806931 -0.096398175 -0.15265733 -0.009277819 -0.010161796 -0.13431932 0.060526967
0.03271156 0.040993728 -0.07110789 0.12662928 0.06646653 -0.15469593 -0.08789902 -0.0765936
0.15117344 -0.109208606 0.15669438 -0.059110824 0.03787969 0.15489148 0.030867467 -0.11159003
0.11771535 0.08051671 -0.04024817 -0.051331908 -0.007290111 0.14404762 -0.027590642 -0.08336162
-0.02902179 -0.106518924 -0.06324566 -0.009047506 0.045176107 0.026529426 0.09326677 0.062244218
-0.085136205 -0.040476963 -0.16802251 0.03533717 -0.0060041714 -0.047491826 -0.004441286 -0.05458656
-0.025631156 -0.067772835 0.094848126 -0.034838565 -0.0426959 -0.044267498 -0.027363906 -0.012626866
0.007957421 0.067209706 0.054234616 -0.1710595 -0.029554073 -0.093010545 -0.08221571 -0.10871233
-0.011206942 -0.1044283 -0.00822577 -0.07553259 0.1378538 0.09594636 0.05910661 0.08783306
0.125415 0.091586605 0.017315418 0.07806097 0.097629026 -0.08294494 -0.038411263 -0.083492056

net.0.bias f4 [128]
00000000: 7536 9cbd d6d6 07be 9cc8 0ebd d603 04bc
00000010: cbe6 c0bc 4718 98bb 76d7 0c3e 3449 8fbd
00000020: f50a a23c 1bab cfbd 6b9a 76bb 1e5e 703d
00000030: de5c 913d ea3a a8bd da46 08bd 82f9 19bd
00000040: ef3f d43d 47af 3abd 26f4 e0bd 7fc4 12bd
00000050: d19b 663d 9520 0e3e 9ca0 b33d 7c9c 3abd
00000060: ad19 6c3d efcd 703d d507 05be 4c4f fe3c
00000070: 246d 99bd 7bf0 e6bd ad50 9f3d 1fc2 d2bd
00000080: 2162 443d 4074 a1bc b9ff 1cbc 3136 103d
00000090: 0af8 833d 26db bdbc d361 c53d 391e f53d
000000a0: e1d7 523d c0ca 6abd 3ab2 c93d 879e 4ebd
000000b0: c99e a6bc d1a8 a03d a5f9 453c a781 a43d
000000c0: 3735 0d3e 197b afbd d0ff ff3d 5728 86bd
000000d0: 5182 363c 602c e23c f62d adbd e534 44bd
000000e0: da5a 083e 4bb2 1fbd d0b2 6a3d e315 97bd
000000f0: 5448 e9bd fc46 00bd 30ca a23d 1946 fc3d
00000100: 7b23 e83d 0188 01be 5ba2 56bc 8e85 f1bd
00000110: 15d7 f43d 950b a1ba 784c 98bd 0cac 953d
00000120: db40 debc e9f0 b0bd bf1a 6d3c 2118 b3bd
00000130: 5df6 a1bd 648e e7bd 5363 083c c260 973d
00000140: 6312 f1bd 9627 853d a36f 553d 9158 e2bd
00000150: c0c5 083e 60a0 3bbc 93a9 0fbe ceb1 b9bc
00000160: 2ed2 fd3b d963 97bd 70e8 083e 7d33 99bc
00000170: 092f 09be c79d 023d 00d1 e1bd 9e66 c5bd
00000180: 0630 0fbe 736f 063a 524f 5b3d 656c a83b
00000190: 74d9 89bd 05ed e33d db03 bebd 88d8 dfbd
000001a0: ff73 0a3e 3579 d63d 38df 1c3d 13b4 82bd
000001b0: dcb8 cd3d c464 efbd 2969 013e b45c 0e3e
000001c0: ce5f 96bc 605a 29bc 8233 b6bd 6dce c9bd
000001d0: 080e e43d 8840 02bd f63c 00be 1382 c03d
000001e0: a6ac 9d3c 3294 dabd 4053 cf3c f5ce 4d3c
000001f0: 6b98 153d 384b 20bb c933 95ba 845e 993d
-0.07627574 -0.13265547 -0.034859285 -0.008057555 -0.02354755 -0.004641566 0.13754067 -0.06996384
0.019780615 -0.10140058 -0.0037628661 0.058683507 0.07097791 -0.08214362 -0.033270694 -0.037591465
0.10363757 -0.045577314 -0.109840676 -0.035831925 0.05630094 0.13879617 0.08770868 -0.04555939
0.057641674 0.058790144 -0.12991269 0.031043671 -0.0749152 -0.11276337 0.077790596 -0.10290932
0.047945146 -0.019708753 -0.009582453 0.03520793 0.06443794 -0.023175787 0.09637799 0.11968655
0.05147541 -0.057322264 0.09848447 -0.050444152 -0.020339387 0.07844699 0.012083446 0.08032542
0.13789831 -0.08568401 0.12499964 -0.06550663 0.011139468 0.02760905 -0.08456032 -0.047902007
0.13315907 -0.038988393 0.057299435 -0.073772214 -0.113907486 -0.031317696 0.079487205 0.123180576
0.11334892 -0.12649538 -0.013100232 -0.11793052 0.11955086 -0.0012286777 -0.0743646 0.07308206
-0.027130535 -0.086397 0.014471709 -0.087448366 -0.07908318 -0.11306456 0.008324462 0.07391502
-0.11771085 0.06501691 0.05210842 -0.11052049 0.13356686 -0.011451811 -0.14029531 -0.022667792
0.0077460026 -0.07392091 0.13369918 -0.01870131 -0.13396849 0.03188875 -0.11026192 -0.09638713
-0.13983163 0.00051283016 0.053542443 0.0051398748 -0.06730929 0.11129192 -0.09278079 -0.10929972
0.13520811 0.10472337 0.038298815 -0.06382003 0.10045025 -0.116891414 0.12637772 0.13902551
-0.01835623 -0.0103364885 -0.08896543 -0.09853826 0.11135489 -0.031799823 -0.12523255 0.0939981
0.019247364 -0.10672797 0.025308251 0.012561549 0.03652231 -0.0024458896 -0.0011383231 0.074887305

net.1.weight f4 [128]
00000000: 969c 753f 7cd8 803f f488 7c3f b931 8b3f
00000010: f0b0 893f 2d2b 833f afc4 753f 0fe5 843f
00000020: 22d1 7c3f e47c 833f 136c 813f e665 863f
00000030: 2814 7e3f db1e 7a3f f462 813f 6181 853f
00000040: b054 6f3f 5207 773f a43b 753f 0394 6b3f
00000050: 112b 793f 5f76 793f 0b98 7e3f d9ab 733f
00000060: 64bf 6b3f fe68 743f fb68 803f 7fa8 803f
00000070: 3dd3 7c3f f8d4 7e3f 28f9 843f be0f 833f
00000080: 72fd 693f 5bf0 733f da4b 833f 7a96 773f
00000090: b6df 823f efc3 7c3f a43e 813f ae11 863f
000000a0: 54ba 853f 6174 753f 1783 6d3f a1a5 7a3f
000000b0: 1ee3 883f a94a 7c3f 87d8 853f fd07 823f
000000c0: dc0e 773f 8009 843f bf9a 853f e73a 853f
000000d0: 6d42 7f3f a98a 7e3f ad60 7c3f 9b65 823f
000000e0: ffb1 743f 6498 833f 8b92 6d3f 94ac 8c3f
000000f0: ef73 823f 9188 873f 8a97 803f fd9a 893f
00000100: 518d 803f 29eb 703f 6032 7f3f 6d17 843f
00000110: 6dc9 6a3f 6e9c 783f abaa 803f 3ca7 793f
00000120: 1028 7d3f 9f2c 6e3f 0c9c 773f 38c4 793f
00000130: 492f 793f b776 863f 1528 743f 5091 7a3f
00000140: 93b1 783f 7ef7 853f 1118 883f 8855 7d3f
00000150: 84cb 823f a7e6 7f3f a337 843f f7e2 733f
00000160: b7a4 703f 1447 833f 8b36 753f 9334 783f
00000170: 9ff9 7f3f 71fd 713f 19f2 773f b70c 6f3f
00000180: 01cd 813f 0779 823f b6d4 863f 72cd 833f
00000190: d0e2 813f 4a5a 763f 37bc 773f 031e 803f
000001a0: f443 813f 503e 803f a2ff 7b3f b37c 833f
000001b0: 382a 833f b63e 793f 7465 713f 074f 663f
000001c0: c777 783f 4a8f 7e3f 180d 773f e288 7e3f
000001d0: 1c5b 8a3f 47ee 893f 85d7 793f c7d6 743f
000001e0: 5175 783f 7613 803f 7074 8b3f f41d 863f
000001f0: a828 823f 804f 803f ebd4 813f bc88 713f
0.95942056 1.0066066 0.98646474 1.0874549 1.0757122 1.0247551 0.9600324 1.0382403
0.9875661 1.0272489 1.0111107 1.0499847 0.99249506 0.9770333 1.0108323 1.0430108
0.934886 0.96495545 0.9579413 0.9202272 0.9733134 0.97446245 0.9945075 0.95184094
0.92088914 0.95472705 1.0032037 1.0051421 0.98759824 0.99543715 1.0388536 1.0239179
0.9140235 0.9528863 1.0257523 0.96713984 1.0224521 0.9873647 1.0097241 1.0474145
1.0447488 0.95880705 0.9277815 0.9790898 1.0694311 0.9855142 1.0456704 1.0158688
0.9650705 1.0315399 1.043785 1.04086 0.9971073 0.9943033 0.98585016 1.0187258
0.955841 1.0280881 0.9280173 1.0990167 1.019163 1.0588552 1.0046246 1.0750424
1.0043126 0.94108826 0.9968624 1.0319649 0.917136 0.9711369 1.0052084 0.97520804
0.98889256 0.93036836 0.96722484 0.9756503 0.97337776 1.0504979 0.9537366 0.9787798
0.97145957 1.0466154 1.0632344 0.98958635 1.0218358 0.9996132 1.0329479 0.95268196
0.94001335 1.0256066 0.9578635 0.9695522 0.99990267 0.94527346 0.96853787 0.93378776
1.0140687 1.0193185 1.0533664 1.0297072 1.0147343 0.9623152 0.9677157 1.0009159
1.0098863 1.0019016 0.9843694 1.027243 1.0247259 0.97361314 0.9429543 0.89964336
0.97057766 0.9943739 0.96504354 0.99427617 1.0809054 1.0775841 0.9759448 0.95640224
0.9705401 1.0005939 1.0894909 1.0477891 1.0168657 1.0024261 1.0143102 0.94349265

net.1.bias f4 [128]
00000000: f155 cfbd 5c53 42bd e5fe c2bd 53c7 c03c
00000010: 9854 183c 2afa 9abd 4e1b 07bd e8fa 9fbd
00000020: 392e 88bd 74dc 8cbd 9bcb 47bc 1f8b 8fbd
00000030: 8e0b 46bd 885e d93c cedc 39bd 9606 18be
00000040: 34fa 8d3c 8f3a acbd cf02 edbd 6b11 a5bd
00000050: c80b 9a3c 7349 7ebd 5155 c2bd d6c8 c3bd
00000060: 002f a1bd 4267 cbbd 42d1 14be 4e6b f7bd
00000070: 2048 91bd 233a 00bd 6e64 e4bb 15a2 14bd
00000080: 5d84 bcbd 86f5 ddbd 9e18 a3bd f1da f8bd
00000090: 4f74 b8bd 97ca a7bd 0a85 ebbc 71f7 4ebd
000000a0: 4ab5 febc 043a d7bc 6d20 fdbd bf18 b6bd
000000b0: b214 e2bd 4f32 53bd f6aa e339 c355 f0bd
000000c0: 943d 9cbd 4234 92bc 4839 48bd 5076 3cbd
000000d0: f185 aebd f8ab 8bbd 13c7 82bd 20b6 74bd
000000e0: 7793 90bd 2cc8 81bd 4877 bebd 6261 15be
000000f0: e881 30bd bc94 2bbc 04dd 89bd 78fb b8bd
00000100: b01d b4bd 0591 58bd 8969 b9bd 49b5 f9bc
00000110: f9ee adbd 9e74 20bd b834 43be 739c 3dbd
00000120: 8f22 b7bc 7367 06be 9c27 17be b6da c5bd
00000130: 9230 eabc 4fad 99bc ba70 cebd 0239 babd
00000140: f6f7 23bd 8dd0 5abd 31b6 89bc 994f d1bd
00000150: 9633 963c 5eb6 b4bd 87be 8cbd 0819 d7bd
00000160: 6b30 abbd 056e abbc 5453 05be 23ae c4bd
00000170: 4daf 01be 3f0d 4dbd 5a0c c9bd a3a2 71bd
00000180: 8a07 b6bd 4482 10bd 1637 8fbd 8b0c 82bd
00000190: 0ca8 97bd a3db 483c 26f4 8abd d9e4 babd
000001a0: 0b62 4ebd 371a 29bd d3af 7dbd fd25 2dbd
000001b0: 1eb7 8bbd a285 d3bd 6178 66bd eee9 fbbd
000001c0: 4c6c 8dbd 863c 04be 51a6 12be 986e 05be
000001d0: 4d3b 1e3d a16a e8bd 1ef6 d6bc 3bed 053c
000001e0: 2cf4 f1bd afd0 e6bd 6e29 3dbd bf07 bb3c
000001f0: 6f36 ffbc 48e7 30bd 8089 8bbd 3712 96bd
-0.10123814 -0.04744278 -0.095212735 0.023532545 0.0092975125 -0.07567246 -0.032985024 -0.078115284
-0.06649441 -0.068779856 -0.012194539 -0.07008957 -0.048350863 0.026534334 -0.04537659 -0.14846262
0.01733122 -0.08409607 -0.11572801 -0.08059963 0.018804446 -0.062081765 -0.09488929 -0.09559791
-0.07870293 -0.09931804 -0.1453295 -0.120810136 -0.07093835 -0.031305443 -0.00696998 -0.036287386
-0.09204934 -0.108378455 -0.0796368 -0.12151135 -0.09006559 -0.08192938 -0.028749961 -0.050528947
-0.031092305 -0.026272781 -0.123597 -0.08891439 -0.110391036 -0.05156165 0.0004342419 -0.11735108
-0.076289326 -0.017847184 -0.048882753 -0.04601127 -0.08521641 -0.0681991 -0.06385627 -0.059744
-0.07059377 -0.06337008 -0.09300095 -0.1458793 -0.04309264 -0.010472473 -0.067316085 -0.09032339
-0.08794725 -0.052872676 -0.09053332 -0.030481951 -0.08492846 -0.039173715 -0.1906308 -0.04629178
-0.022355346 -0.131254 -0.14761204 -0.096608564 -0.028587613 -0.018759398 -0.10080095 -0.090929046
-0.040031396 -0.053421546 -0.016810508 -0.1022026 0.018335145 -0.08823846 -0.06872278 -0.10502821
-0.08358844 -0.020926485 -0.13020068 -0.096035264 -0.12664528 -0.05006146 -0.09816809 -0.058992993
-0.08888157 -0.03528048 -0.06992929 -0.06350049 -0.07405099 0.012259397 -0.06784849 -0.091256805
-0.05038647 -0.041284766 -0.061935257 -0.042272557 -0.06822036 -0.10328223 -0.056267146 -0.12300478
-0.069054216 -0.12913713 -0.14321257 -0.1303047 0.038630772 -0.11348463 -0.026240405 0.008174236
-0.1181415 -0.11270272 -0.04618209 0.022830842 -0.031153886 -0.043189317 -0.068133354 -0.07327693

net.1.running_mean f4 [128]
00000000: 4b04 a7bd 6d0d 09be 890f 27bd 8d42 cabb
00000010: f8d4 acbc 9520 31bc 440c 053e ed7d 95bd
00000020: 4934 9d3c 29b4 dfbd 7c69 aabb 2ae4 353d
00000030: b468 953d 4f95 8abd 3bbf f3bc bfb0 16bd
00000040: f156 d93d 0595 32bd 6761 d6bd 5f78 15bd
00000050: 1681 5e3d c290 033e ce83 c13d 69c2 0fbd
00000060: 0943 533d 36a3 943d 032c 0abe 4b82 033d
00000070: 47b1 8bbd 3791 e9bd 14f0 893d 15d7 cdbd
00000080: 2b8b 7a3d f0a0 98bb 0166 91bc 043d d83c
00000090: 9e20 5d3d 585c e2bc 4f5c c23d 09b6 033e
000000a0: 255f 533d 9c1f 8cbd a420 f73d 5dfb 86bd
000000b0: c52d 96bc a9d6 b43d d252 d63c a806 ae3d
000000c0: 530a 133e eb34 bdbd 294b 0d3e df94 88bd
000000d0: 86cd 493b 8cf9 2c3c f783 99bd 017e 28bd
000000e0: d274 193e 9f8e 0dbd d2a3 7b3d ce50 90bd
000000f0: 9e80 04be 2401 05bd afd0 be3d f231 0a3e
00000100: 048d dd3d 425f 1cbe 9450 393b e319 16be
00000110: fb13 013e 0a9f f53b 7330 a2bd 744d b13d
00000120: 2dfc c9bc 9007 8abd e873 97bb 259f 98bd
00000130: 7402 acbd e281 f9bd b6f8 ce3c 1309 8d3d
00000140: e2d5 01be 7db3 8d3d c44f 723d 11dd dcbd
00000150: 309d 0e3e 5836 beba 1431 15be 86fd debc
00000160: d702 ac3c 6f5f 6cbd b8cc fe3d eab2 c2bc
00000170: 8b36 09be 0e05 043d d2eb bfbd 8c25 abbd
00000180: 87da 13be f168 adbc 60bb 5b3d baea 813c
00000190: 6870 98bd 10c2 d23d c9fb b6bd b63e e8bd
000001a0: eb09 063e 7425 e63d 144d 153d dbfb 7fbd
000001b0: 184e e53d e554 f9bd f836 163e 0cd9 033e
000001c0: 15d5 72bc 1c76 26bc 6d46 c2bd 65a3 f4bd
000001d0: c6e0 e03d 11ac a0bc d753 fdbd 6ccb d63d
000001e0: 5a23 b63c 0e41 e0bd 326d d23c 183c 343c
000001f0: d94b 8b3c 13aa ed3b 903c a4bb a8e1 c13d
-0.08155116 -0.13384028 -0.0407863 -0.0061724843 -0.021097645 -0.010810991 0.1299296 -0.07299409
0.01918997 -0.10923035 -0.005200563 0.044407047 0.07295361 -0.067667596 -0.029754272 -0.036789652
0.10612286 -0.043599147 -0.10467797 -0.036491748 0.054322325 0.1284819 0.09448968 -0.035097513
0.0515776 0.072576925 -0.13493352 0.03210668 -0.06820922 -0.11404651 0.067352444 -0.10050789
0.061167877 -0.004657857 -0.017748835 0.026396282 0.053986184 -0.027631924 0.09490263 0.1286241
0.05160441 -0.068419665 0.120667726 -0.065909125 -0.018332371 0.08830006 0.026162539 0.08497363
0.14359407 -0.09238609 0.13798203 -0.0666902 0.0030792668 0.0105575435 -0.074958734 -0.04113579
0.1498597 -0.034559842 0.061435528 -0.07046662 -0.12939689 -0.03247179 0.09317147 0.13495615
0.10817912 -0.15270713 0.0028276788 -0.14658312 0.12605278 0.0074957656 -0.07919397 0.08657351
-0.02465638 -0.06739724 -0.0046219714 -0.074522294 -0.083989054 -0.12182976 0.025265079 0.068864964
-0.12679246 0.06919 0.0591581 -0.107843526 0.1392715 -0.0014512045 -0.14569503 -0.027220499
0.020997448 -0.0577082 0.12441391 -0.023766953 -0.13399713 0.032231383 -0.09371151 -0.08356771
-0.1443883 -0.021168204 0.05364549 0.015858997 -0.07443315 0.10290921 -0.08934743 -0.11340086
0.13089721 0.11237612 0.03645046 -0.062496047 0.11196536 -0.121743955 0.14669406 0.12875766
-0.0148213105 -0.010159995 -0.09486089 -0.119452275 0.10980372 -0.019613298 -0.12369507 0.104880184
0.022233654 -0.10949908 0.025686834 0.011000656 0.01700394 0.0072529404 -0.0050121024 0.09466869

net.1.running_var f4 [128]
00000000: 2dbc 803f 2bfc 713e 6c77 db3e cdde 0f3e
00000010: c111 b93d ac2a 893e a702 143f fc1e 683e
00000020: 8542 853e dfbd 943e f21c 573e fd03 083f
00000030: 2042 5b3e 12d1 453f 22de 173f aa60 eb3d
00000040: f8b4 d43e 2a68 053f e75b 883f cf4c 363f
00000050: 535f 223e 451a 703f 4b0e cf3e ff4f 603f
00000060: d84c 493f 66c3 e23f cbef 753e 2bef 903e
00000070: 54fe 113f b660 043f 13f1 833f 06b8 883e
00000080: ac28 0140 630f a93e 7967 d53e e195 3d3e
00000090: bc59 243f 659a 0c3e 4b00 4f3e 213e 593e
000000a0: 2b67 ff3d 1dee dd3e 2b60 a53f b3c2 8a3e
000000b0: 4b39 3b3e 3226 3a3e 531c 9d3e 782d 023f
000000c0: 81e4 333f b52c fa3d c9fa 6f3e 4679 653d
000000d0: 8109 c73e 78ae fc3e 33ee f53e a4b4 153f
000000e0: 6abe 743e 154c 203f 2bd9 fa3e f86f 043e
000000f0: 7f75 dd3e a7bb df3e 7ea1 ea3e 195f 853e
00000100: f4f7 663d 6604 933f 8f41 953f c8f5 653f
00000110: 364a c03f c7d1 8d3f b237 593e 1a16 683f
00000120: 6327 053e c1ad d23f 6952 823f 57cc 523f
00000130: b0d0 193e 3dd2 a83d 4231 2e3f fb9a 893f
00000140: 24c4 bf3e 976b d63e e164 8f3e 7dce 8f3e
00000150: 4295 a23e 1e79 c23e 40ba 253e 324e 7e3f
00000160: b400 463e c8f6 673f 6aa4 2d3e 8214 3b3f
00000170: 88a2 043e 4548 f13e eb4a 893f 3ac6 f53e
00000180: fe81 233f b514 303f 3689 6a3e 3d54 1e3e
00000190: 6bc8 4b3e 1086 7d3f 3572 9e3e 337a 493e
000001a0: 0044 1e3e 97ef 533f 432b 623e cd58 173f
000001b0: 8379 0e3f 3481 c13e b561 253f 2c13 1a40
000001c0: 77ef e43e d5a5 823e 2445 9c3e 2ca5 7e3f
000001d0: 595d 213d eec3 ae3e 6fba 8a3e 0273 953f
000001e0: c7f4 ef3e 1487 873e 3b49 1c3e 12d8 0c3e
000001f0: d11b 263f db2c bc3e c9cb 4b3e 023c ac3f
1.0057427 0.2363135 0.4286455 0.14049836 0.090365894 0.2679037 0.5781655 0.2266807
0.26027313 0.2905111 0.21007136 0.53131086 0.21411943 0.7727214 0.5932332 0.114930466
0.41544318 0.52112067 1.0653046 0.7121095 0.15856676 0.93790084 0.40440592 0.87622064
0.7863288 1.7715881 0.24017255 0.2830747 0.570287 0.5171007 1.0307945 0.267029
2.0181074 0.33019552 0.41680506 0.18514206 0.64199424 0.13730772 0.20214956 0.21215107
0.124708496 0.4334573 1.2919973 0.2710167 0.18283574 0.18178633 0.30685672 0.5085063
0.70270544 0.122155584 0.2343551 0.05602386 0.38874438 0.4935186 0.48033294 0.5847876
0.23900762 0.6261609 0.4899381 0.12933338 0.43253705 0.43697855 0.45826334 0.26049116
0.05638881 1.1485717 1.1660632 0.8982816 1.5022647 1.1079644 0.21212652 0.90658724
0.13003306 1.6459275 1.01814 0.8234305 0.15021014 0.08243225 0.6804391 1.0750421
0.3745433 0.4187896 0.28006652 0.28087226 0.317545 0.3798303 0.1618433 0.99338067
0.19336206 0.90610933 0.1695725 0.7307817 0.12952626 0.4712545 1.0725988 0.48002797
0.6387023 0.68781596 0.22903904 0.15461822 0.19900672 0.9903269 0.30946508 0.19675522
0.15455627 0.8278746 0.22086816 0.59119874 0.5565416 0.37793887 0.64602214 2.4074202
0.44713947 0.25517145 0.305215 0.9947078 0.039395664 0.34133857 0.27095363 1.1675723
0.46866438 0.26470244 0.1526231 0.137543 0.64886194 0.36752972 0.19901957 1.3455813

net.4.weight f4 [64, 128]
00000000: 8d17 be3c 77dd f33c 896b 83bd a05b d8bd
00000010: ced1 aa39 de65 ab3d 931d c7bd b3a2 97bd
00000020: 6b2a ce3d bb57 6fbc 3919 9f3d 79cb b5bd
00000030: c79d 953b b6cd 0e3d 091c 2f3b 0a7c 4939
00000040: ea82 873d 03ea 91bd b5ad 8a3c fa7d 963d
00000050: 0287 523d 371c abbd ca9b 81bc 7389 4a3d
00000060: a76b 1bbd 1ff5 2abd 6b82 4c3d 41a0 1abd
00000070: 499c b03d 8bfd 04bd 1aa1 b13d 9898 513c
00000080: 4016 0f3c f670 e53c 68bc ae3d 7d13 57bb
00000090: cca8 b13c 6471 9bbb 1f77 14bd 6fe7 443d
000000a0: e396 17bd bd58 c3bd 339e b23d 74f4 e9bb
000000b0: e546 21be 68c4 8c3d f8f5 7dbd 25f7 f73d
000000c0: b738 1dbd a933 c9bb 330e a43d c700 63bd
000000d0: 8edf 9ebd 947c 7cbd 0a43 2f3b 300b 253d
000000e0: c5ef 403c 82f3 983b 1a78 3e3d b874 a1bd
000000f0: c3c3 3b3d bf9a 1b3d 2450 e4bb 058b 4e3d
00000100: c929 f5bc e316 54bd 14e4 9d3d ee95 7dbd
00000110: aaff 9b3d 5a45 81bc bf45 adbd be73 23bd
00000120: d982 b8bc 912f 69bd a8ad c5bd e80b c0bc
00000130: 8f1d b63d ff57 d0bd f7a6 7e3d 9017 953d
00000140: b776 ffbc 9da2 c8bd 9220 1cbc 98e4 be3c
00000150: ecf1 8dbb 514b a6bd 42bb acbd 03a5 1cbc
00000160: f080 8f3c 4c5b 823c c69d f7bb 3fbe 9dbd
00000170: d3f2 263c adb4 253d 8de2 783d 1874 523d
00000180: f5c4 ffbc 2f2b 74bd 9eae 0c3d 09bb 943d
00000190: dcc0 8d3d 4eab 803c ac7a 48bd 3f4c f73c
000001a0: c839 a7bd 2aeb b53d 0a85 e23b 5c48 28bd
000001b0: 2605 9dbd c2ad 2dbd 0bf1 db3d b52d b13d
000001c0: 3272 913d 20b2 6ebd d8aa a73d 0856 f1bd
000001d0: 209a 773d 112f 09bd 40d0 273d d8fb aa3c
000001e0: a5d1 173d 7fcb 95bb 13e8 29bd 0ce7 363d
000001f0: 126e cb3b 2b6d 4dbd ca28 45bb e77f 9b3b
00000200: 0116 febc 5586 90bd 8761 8a3d fab0 7fbd
00000210: 9f71 04be d7e5 cc3d a3c4 c93d c9d3 8bbc
00000220: 1f3e afbd 3c03 d73d d4ac 0d3e 6683 303d
00000230: 2788 a03d e56f d0bd 6556 b6bc 05d7 1dbd
00000240: c28a 4a3c cd6e b93b 0031 b3bd 2f62 80bd
00000250: a703 cc3c 4324 63bc b551 91bd 474f 473d
00000260: e1c5 0cbb 4b44 2c3d c03c df3d 5033 973c
00000270: c058 19bd 5c95 6bbc 6eae f1bc 631b 03be
00000280: 762a 1b3d d1d8 a6bd 0c00 1c3d 6402 473d
00000290: 75aa 9b3c 3e05 8fbd 58fe 8abd 4745 47bd
000002a0: 647e 0d3c 32e1 023c becd 3dbc 2f8f 0fbd
000002b0: 7d30 983d 9870 1dbd 0eab 43bd 27b4 10bd
000002c0: 8b09 3f3d 4f54 723c 58a6 efbc 516e 08bc
000002d0: 2326 64bd a1b8 363d ac53 403d cb41 7ebd
000002e0: db9c 7abd a63e 693c 6d10 e1bc 5ba5 9c3d
000002f0: 1c17 d6bc a4d5 8c3d ed10 ecbc 859f cbbc
00000300: 5b0e 32bd 586e 013b 4d74 88bc 3bd0 b23d
00000310: 1ff7 5d3d 3fe8 8c3d 6382 c83a 1d8c aabc
00000320: 6ea5 d4bd edd1 1c3d 0bdc a0bc f411 98bc
00000330: d68a c3bd 691f 9abd d922 893d ccba 5f3c
00000340: 5f07 b03d c3ac 26bd d605 4e3d d0ba f43d
00000350: e03a 32bc a1cb a3bd 8c9b 96bd 6a79 ad3a
00000360: d64e bebd c4b3 8b3d 6d21 c7bd 1d12 3e3d
00000370: 0940 9e3d 9860 283c 086f 80bd 11d4 69bd
00000380: 21f3 a7bd da9a 293d 9291 ea3d 638e 5dbc
00000390: e5bf b7bc 9541 fdbd 7918 17bd 24de 5b3b
000003a0: 84be a0bd b105 9fbd 540a b6bb 6a85 553d
000003b0: 9d3a d93a f1f1 e6bd 2d0f 25bd 111c 143d
000003c0: bf4d bcbd 4572 893c d78b 26bc fee6 d2bc
000003d0: 2342 1cbd 235b e93d f703 c63d ab1f 94bb
000003e0: b431 8dbd bf89 35bd a226 333b 3ed6 fdbd
000003f0: 2484 14bc 6815 d63c 0a1d 34bd 2a0b bbbc
0.02320459 0.029768689 -0.06416995 -0.10564351 0.00032581243 0.08369039 -0.09722438 -0.07404079
0.10066684 -0.014608319 0.07768483 -0.088767 0.0045659277 0.03486415 0.002671959 0.00019215062
0.06616767 -0.07124712 0.016928533 0.07348247 0.051398285 -0.08354991 -0.015821356 0.049447488
-0.037944462 -0.041737672 0.049929064 -0.037750486 0.08623559 -0.03246836 0.08673306 0.012792729
0.008733332 0.028007966 0.085320294 -0.0032818012 0.021686934 -0.004743742 -0.036246415 0.048072275
-0.03700913 -0.0953841 0.0872158 -0.007139737 -0.157497 0.06873399 -0.062002152 0.12107686
-0.038384166 -0.0061401916 0.08010521 -0.055420663 -0.077574834 -0.061642244 0.002674284 0.040293872
0.0117759155 0.0046677003 0.046501257 -0.078835905 0.04584099 0.037989374 -0.0069675613 0.050425548
-0.029927151 -0.05177964 0.07709518 -0.061910562 0.076171234 -0.01578014 -0.08460569 -0.039905302
-0.02252333 -0.05693013 -0.09652263 -0.023443177 0.088923566 -0.10173034 0.06217095 0.07279885
-0.031184537 -0.09796641 -0.00952925 0.023302361 -0.004331818 -0.08119834 -0.08434154 -0.009560826
0.017517537 0.015912674 -0.00755665 -0.07702302 0.01018973 0.04045551 0.06076293 0.051380247
-0.031221846 -0.059611496 0.034346215 0.072622366 0.06921551 0.015706684 -0.048945114 0.030187724
-0.08165318 0.088827446 0.006912832 -0.041084632 -0.076669976 -0.042402036 0.10739335 0.08651296
0.07101859 -0.058275342 0.08186883 -0.11783987 0.06044972 -0.03349215 0.040970087 0.020872042
0.037065167 -0.0045713778 -0.04148109 0.044653937 0.0062081898 -0.05015294 -0.0030084127 0.0047454718
-0.031016352 -0.07056872 0.06756883 -0.062424637 -0.12933968 0.10004776 0.098519586 -0.01706876
-0.085567705 0.10498664 0.1383546 0.04309406 0.07838469 -0.10177592 -0.022257993 -0.038535137
0.012362184 0.0056589604 -0.087495804 -0.06268727 0.024904085 -0.013863626 -0.070956625 0.04865959
-0.002148025 0.042057317 0.10900259 0.018457085 -0.037438154 -0.014378872 -0.02950212 -0.12803416
0.03788229 -0.08146823 0.038085982 0.048586264 0.019002179 -0.06983422 -0.067867935 -0.048650052
0.008636091 0.007988261 -0.011584697 -0.03504866 0.074311234 -0.038437456 -0.047770552 -0.035328057
0.04663996 0.014790609 -0.029254124 -0.008327083 -0.055700433 0.04460967 0.046954796 -0.062074464
-0.061184745 0.014236128 -0.027473653 0.076487266 -0.026134066 0.06876686 -0.028816665 -0.024856338
-0.04347072 0.0019749608 -0.016657019 0.08731123 0.05419075 0.06880235 0.0015297647 -0.020818764
-0.10383116 0.03828614 -0.019636175 -0.018563248 -0.09547965 -0.07525522 0.066961 0.013655376
0.08595156 -0.040692102 0.050298534 0.11949694 -0.010878295 -0.079978235 -0.07353887 0.0013235037
-0.092923805 0.06821397 -0.09723172 0.046403993 0.077270575 0.010276936 -0.062711775 -0.057087008
-0.0820067 0.041407444 0.114535466 -0.013522717 -0.02243037 -0.123660244 -0.036888573 0.0033549154
-0.07848838 -0.077647574 -0.0055554304 0.052129187 0.0016573254 -0.112766154 -0.040297676 0.03615958
-0.091945164 0.01677812 -0.010165176 -0.025744911 -0.03814901 0.11394336 0.09668725 -0.0045203767
-0.06894246 -0.044320818 0.002733626 -0.12394379 -0.009064708 0.026133254 -0.043973006 -0.022832472

net.4.bias f4 [64]
00000000: dee9 65bc e368 853d 11c1 a3bb f565 29bd
00000010: 346f afbd 631b 16bb d266 f7bc b6c3 033d
00000020: 374d 543d d86a 1a3d 1257 ae3d 684f 9aba
00000030: 312d b2bd 6622 4e3d 7e90 9fbd d98a 36bc
00000040: 17c9 7ebd e64c 783d 3f0f d4bb ad23 863d
00000050: 2c50 ce3b f42d 123b 6201 d73c 1dfd 3c3d
00000060: 3b2e 2dbd b919 043d 035f 92bd 561e d5b9
00000070: 3aad a3bd ef35 703d ade4 8cbd 83d7 85bd
00000080: 5a16 413d 7e66 12bd 0c50 93bd 184b 563d
00000090: 0d87 3b3d b6fa cbbc c522 8ebd 8de7 7bbd
000000a0: 34b8 4ebc 8f33 4fbc 7d1e 7e3d 1f76 19bd
000000b0: b12e 253d 4de2 06bd e9cd 963d c485 82bd
000000c0: 2ed6 3abc d9bd b53d 62eb a0bd 3dfe 28bd
000000d0: 9b84 423d d33d 993b 4a56 84bc 93c1 63bd
000000e0: 5ec4 513d 64fb b83a d7f2 dd3c 4179 bc3c
000000f0: b210 a7bd a0e5 8e3d 3fdc 0a3d 4976 533d
-0.014032809 0.06514146 -0.0049973805 -0.041357 -0.08566132 -0.0022904507 -0.030200396 0.032169066
0.05183145 0.03769955 0.08512701 -0.0011772932 -0.08700026 0.050325774 -0.077912316 -0.011141502
-0.062203493 0.06062021 -0.006471544 0.06549773 0.0062961783 0.0022305222 0.026245777 0.046139825
-0.042280417 0.032251094 -0.07147028 -0.00040649128 -0.07992025 0.058645185 -0.06879554 -0.06535246
0.047140457 -0.035742275 -0.07193002 0.05231771 0.04578309 -0.024899822 -0.069402255 -0.06150012
-0.01261716 -0.01264657 0.062040795 -0.037466165 0.04032773 -0.03293066 0.07363493 -0.0637317
-0.0114036035 0.08874101 -0.07857396 -0.041258086 0.047489744 0.0046765595 -0.016154427 -0.05560453
0.05121266 0.0014113006 0.027093334 0.023007037 -0.08157481 0.06977391 0.03390145 0.051626477

net.5.weight f4 [64]
00000000: 7528 9a3f 535f 923f b2b3 973f ea71 8d3f
00000010: 6173 923f 1835 9d3f 44cc 903f 0a81 923f
00000020: 24d3 933f 38d4 9a3f ccec 933f b17a 983f
00000030: 5f7a 903f 05f4 903f 4528 933f c422 923f
00000040: 012f 8e3f 2aa6 8e3f e31a 943f 8566 953f
00000050: a26d 9a3f 241a 9f3f e96c 983f a7ec 9b3f
00000060: 4263 933f 2e3a 8f3f e90b 923f 88df 8f3f
00000070: 2786 933f ff09 913f e225 943f 7f1c 973f
00000080: 6bdd 903f 4c62 963f 3ccd 913f 0ee9 953f
00000090: 6924 983f 5035 903f 3b04 8a3f 1a80 973f
000000a0: 205c 993f 0dda 933f e0cf 993f 615f 943f
000000b0: 3a3c 983f 87af 953f 74a8 923f b205 903f
000000c0: b444 963f 02d5 903f 7fa3 8d3f 7bc2 953f
000000d0: 691e 963f 8b82 933f 0ffa 8c3f 9a6e 953f
000000e0: 688a 903f 0ac6 943f 9201 943f b615 9b3f
000000f0: 9684 953f de2c 8f3f 6f9a 8e3f ce01 953f
1.2043597 1.1435341 1.1851714 1.1050389 1.1441461 1.2281828 1.1312337 1.144563
1.154881 1.2096014 1.155664 1.1912442 1.1287345 1.1324469 1.1496664 1.141686
1.1108094 1.1144459 1.1570705 1.1671911 1.2064707 1.2429852 1.1908237 1.2181596
1.1514666 1.118963 1.1409885 1.1240091 1.1525315 1.1331176 1.1574061 1.1805571
1.1317571 1.1748748 1.1390758 1.1711748 1.1886111 1.126627 1.0782541 1.1835968
1.1981239 1.1550919 1.2016563 1.1591607 1.189338 1.1694192 1.1457658 1.1251738
1.1739717 1.1315005 1.106552 1.1699976 1.172803 1.1524214 1.1013812 1.1674378
1.1292238 1.1622937 1.1562979 1.2116001 1.1681087 1.1185567 1.1140879 1.1641176

net.5.bias f4 [64]
00000000: f085 0a3e 166f 013e a1ec 213e b125 7f3d
00000010: 6e02 b13d 0c6c 2c3e 6386 db3d f10a b13d
00000020: 0f41 c93d 14b3 103e fb88 883d 77ac 973d
00000030: 671c c93d 338d f43d 87da 003e 3b8e 133e
00000040: e969 753d 105f ca3d 6d88 113e 42b9 d73d
00000050: 66dc 173e 3839 bb3d c058 c23d 1023 f93d
00000060: 2bb3 993d 292b fc3d d08e 8e3d dfa3 f03d
00000070: 0de2 fd3d 2c2f 113e 90e7 e73d d72c 323e
00000080: f5f0 c83d 75e0 953d c051 5b3b 7bbe d23d
00000090: e66b 253e f22b fb3d 45e8 e63c a78c 093e
000000a0: e0db fb3d de1d 043d ddf1 263e 0ec8 b83d
000000b0: c8a2 0b3e 45cb e13d 680c 933d 6a6e 9b3d
000000c0: 02a3 fe3d 1e73 de3d e00f 1e3e 5350 bc3d
000000d0: 539f 013e e0db 003e 2472 cf3d c229 9e3d
000000e0: 747c 453d 7fa6 203e e55d ca3d 7c58 423e
000000f0: b41c 093e f432 533d 2546 ec3d 6856 203e
0.13527656 0.12640032 0.15812923 0.062291805 0.086430416 0.16838092 0.107189916 0.08644665
0.09826862 0.14130813 0.06666752 0.07405942 0.098198704 0.11940994 0.12583362 0.14409725
0.059915457 0.09881413 0.14212199 0.10533382 0.14830169 0.09141773 0.09489584 0.12164891
0.07504877 0.1231292 0.06960833 0.11750006 0.123966314 0.14178151 0.11323464 0.17399918
0.09811584 0.073182024 0.0033465475 0.102902375 0.16154441 0.12264241 0.028186927 0.13432561
0.12297797 0.032255046 0.16303201 0.090225324 0.13636315 0.11025099 0.07180101 0.07589419
0.12433435 0.108618006 0.15435743 0.09195008 0.12658434 0.12583876 0.101291925 0.077228084
0.04821439 0.15688513 0.0988119 0.18979067 0.13389856 0.051562265 0.115368165 0.15657961

net.5.running_mean f4 [64]
00000000: b5c6 73bd e70e a7be 6711 64be ecc1 d33e
00000010: 964c 1b3e dc6c 7ebe dd4f 4c3d 2d64 43bf
00000020: 61ba c7be c3c5 983e a8a5 b53d 51ed 14bf
00000030: 0a47 ac3e 14f1 e1be e419 0ebe de06 5ebf
00000040: 18de b33e 553b e03e 9494 8f3e 9c48 ba3e
00000050: 150d dfbd a573 adbd faa0 40bf 35e3 e5be
00000060: da8f 74bf 25d4 343d 3796 e23d 22a8 27bf
00000070: 979b e53e caa5 dcbe 8ded 66be 0705 bd3d
00000080: f7e1 2c3f e801 14bf b53d 89bf 987e 49be
00000090: 5789 92bf 414c 03bf 8408 133e 56f5 973d
000000a0: 327e 36bf 1e73 61bf b826 003e 4021 36bf
000000b0: 6db5 b7bd 1fe2 40bf 51a8 a9bd 38a0 64bf
000000c0: 7dd9 b6bf 3346 e93e f6cd 30bf 450f 9dbd
000000d0: 38d8 df3c bf9d 91be d254 5d3d ad24 9b3e
000000e0: 227a d93e 40cb 1ebf c2bc 33bf af10 38bf
000000f0: e777 8bbf 4075 01be 7658 4a3f 114c 5fbe
-0.059515674 -0.32628557 -0.22272263 0.41358888 0.15165934 -0.24846214 0.04988085 -0.7632473
-0.39009383 0.2983838 0.08869487 -0.58174616 0.33647949 -0.4412924 -0.13877064 -0.8672923
0.35130382 0.43795267 0.28043044 0.36383522 -0.10891167 -0.08469323 -0.7524563 -0.44899908
-0.95532 0.04414763 0.110638075 -0.65490925 0.44845268 -0.43095237 -0.22551556 0.092294745
0.67532295 -0.5781541 -1.0721956 -0.19677198 -1.1448163 -0.5128823 0.14358717 0.07419841
-0.7128631 -0.8806628 0.1251477 -0.71144485 -0.08970151 -0.75345033 -0.08284057 -0.89306974
-1.4285122 0.4556137 -0.6906427 -0.07668928 0.02732478 -0.28440663 0.05403597 0.3030142
0.42475992 -0.62028885 -0.70209897 -0.7190046 -1.0895966 -0.12642384 0.7904123 -0.21806361

net.5.running_var f4 [64]
00000000: 598a 323f 7548 4d3f d386 973f 83ee e13e
00000010: 5f07 793f 1293 5a3f 6dcb 7d3f c7dc 173f
00000020: 513f 8d3f 3798 473f 3cb2 833f 6987 233f
00000030: 355a dc3e be13 123f ccfa b73f d15b 1d3f
00000040: 1676 883f 5beb 263f 31ce 6c3f a751 2e3f
00000050: 9000 8b3f 7ab4 aa3f 50b5 093f 21bf 8e3f
00000060: f18f 0a3f 99cc 923f 568e 193f f8cd e43e
00000070: aae9 f23e bd96 613f bf9a 6f3f 5146 533f
00000080: 858e 533f 3145 213f 8a4f 333f 322c 6c3f
00000090: 7b37 fe3e e381 5c3f 6050 693f f48b 033f
000000a0: 6b8a 8a3f faf2 073f fc1c 243f acc6 3f3f
000000b0: 5246 9f3f aaf1 553f 8d92 2c3f 6839 263f
000000c0: b59d f63e eb28 333f 0e5d 7d3f 82d9 733f
000000d0: cd30 873f 5f0c 443f 85f6 113f 87b3 183f
000000e0: 91d9 423f 607e 833f 6a85 4a3f e68d b93f
000000f0: 02d6 203f 62a3 203f 56fa 2f3f 0636 433f
0.6974235 0.80188686 1.183802 0.44127283 0.9727687 0.8538066 0.9913853 0.59321254
1.1034948 0.77966636 1.0288768 0.63878495 0.43037573 0.57061374 1.4373412 0.61468226
1.0661037 0.65202874 0.92502123 0.6809334 1.0859547 1.3336327 0.53792286 1.1152078
0.5412589 1.1468688 0.5998281 0.44688392 0.47443897 0.88120633 0.935955 0.8252917
0.8263934 0.629962 0.7004324 0.92254937 0.49651703 0.8613569 0.9113827 0.51385427
1.0823492 0.5310513 0.64106727 0.74912524 1.2443335 0.83571875 0.6741112 0.64931345
0.48167196 0.6998431 0.98970115 0.95253766 1.0561768 0.76581377 0.57016784 0.59648937
0.7611323 1.0272942 0.79109824 1.4496429 0.6282655 0.627493 0.6874136 0.7625431

net.8.weight f4 [32, 64]
00000000: da0a d4bd 9b3f febd 4732 d73d 464f 99bd
00000010: 94f8 c03d 45ed cc3d 06b2 4cbc 5a93 ff3d
00000020: 632e 343e a9c8 33bd 391a b8bd 9a54 f2bd
00000030: 4fd0 cebd c671 8c3d 7f63 883c ca4e 62bc
00000040: bc1f 0d3e 2412 c4bc c93e e6bc d08a ecbd
00000050: 91db a33d 9d03 99bd 38ac c93c b110 16be
00000060: 082e f3bd 9550 893d 7c33 b33d 56a7 063c
00000070: 7423 debc c887 1a3d a29f 063d 8eed 513d
00000080: a351 f8bc 32d6 67bd 1b7d f53c 67a5 bebd
00000090: 560a ff3d a87e aabd 4cdc ecbc 36be 5abd
000000a0: 0fbe a2bd 6832 7d3e dd15 d4bd 3f6a 5a3e
000000b0: c8eb a2bd 60ae 52be 4cc7 02be 61ea f43d
000000c0: 5930 a23d 464c dd3c 553b 8f3d f4a6 46bc
000000d0: 4552 5c3e 9669 c13c 1e64 043e 4c0e 4a3c
000000e0: 7e2e 25bd aa4d 423e 0b16 19be 9be8 b2bd
000000f0: a51f 9f3d f37c 2e3c 4c69 01be a57c a3bc
00000100: 7019 80bd 8755 b6bc 9c5f 33bb 721a 8bbd
00000110: a10b bd3d 4316 07bd cf61 df3d 0de6 ae3c
00000120: 2334 5a3e cb36 f63d 4b07 563e 4562 d53d
00000130: 7390 1e3d 4778 9d3d 736b 023d 562f f53d
00000140: da50 4c3e 8298 53be 7813 2fbe 143b e63d
00000150: f5c2 2c3e c04d d93d baf8 f6bd 1f25 1ebd
00000160: 8bd0 6c3d c124 a2ba e1ee 493e 8b38 1b3e
00000170: 467e 903d fbab 1a3e a7a5 c23d 2ad9 12bd
00000180: d699 adbd b35e 41bd ea6c 253c 0bfe b0bd
00000190: 35e0 8f3b fceb 1abe faff 9abb 9d89 973d
000001a0: 4fff 3abe 57c4 25bd 3094 10bd 40c1 3c3e
000001b0: 1a0f ed3d b1bd e6bd 6d4f a6bd dc86 4b3d
000001c0: 3bd7 e3bd 6e27 30be 7244 ebbb 96f5 3d3e
000001d0: 8e5b 923d 4005 07b9 0c2d abbb 2b40 453e
000001e0: 38a1 003e 3be9 3a3e 4cb5 7cbd bbdc 2bbe
000001f0: f21f 163e 7213 b6bd 0899 96bd e44a 41be
00000200: 59fb 823e 5fd5 8f3d c844 c43d bf58 113e
00000210: aaab a6bd f410 c03d b6eb eb3d d0eb 9abc
00000220: da7f 4bbe bfb6 943d 1692 09be c381 0b3e
00000230: a20d 4d3e 1947 463d 93a2 893d e66c 25bd
00000240: e86f 05be 7089 c13d 767a 313e fefe 883d
00000250: 1b68 e1bd 4499 f4bd e81b 4f3e 7ed2 963e
00000260: d8e0 753e 8014 5f3d f229 13bd d647 11be
00000270: 551b 763e d3a0 b0bd 3787 d93c c75e 013e
00000280: 57bb 4c3d b0fd ae3c 9d8a f1bd 4f22 a33d
00000290: 949c 243e 8bfa 6b3e d867 193d 9857 313e
000002a0: 4535 773e ef65 01be ca94 e13d 457c b1bd
000002b0: b993 52bd e828 4c3e f548 4e3e 0542 42bd
000002c0: 9e15 263e 42aa 813e f76d 1a3e 555f edbd
000002d0: 2afa 06be d379 933c 5087 e93c 8e07 06be
000002e0: b548 41bd 6800 f5bb 9def 953e d110 963e
000002f0: 1d59 a33d f1dc b3ba b6bb 3a3e 06b6 6f3e
00000300: 1de6 46bd 8d6d 253e 6003 7e3d ee23 f1bd
00000310: 78c1 103e 40a3 8c3e 6e71 053b 1378 7abd
00000320: cf95 343b 63a2 423e c903 a53d 8b77 183d
00000330: 7407 83bd a500 573b 92f3 ff3d 3082 0bbe
00000340: 93e5 bc3c 8de0 c1bc 7315 f33b 8171 be3d
00000350: ed90 043e 6747 c03d e94e 573d e8c2 323e
00000360: d269 203e 8359 44bd 4241 f03d 372b bebd
00000370: 94e2 a03a dc8b 56bd 86e6 643e 3aaa 7d3e
00000380: 1f0e 17bd c6d2 adbd 95fc 883d 04db d53d
00000390: 0b7c 483d f9a6 a5bd e619 063e 058b 433e
000003a0: 0f61 843e 7f76 21be 4eed 4d3e 34e4 c73d
000003b0: 2dc5 293e 83cd 3c3e 2edb 6d3d 29b1 0bbe
000003c0: 71c3 a73d b8a0 0fbe 9a84 11be 4d6f 1f3d
000003d0: d2e4 ff3d fcbb 43be c58b 1dbd 9a16 6e3d
000003e0: 558f 3f3e eeae bfbc 47b0 9d3d 78cc 653e
000003f0: a95b 5abe dd3d 7c3e ec55 36be 369e c6bc
-0.10353632 -0.124144755 0.105076365 -0.07485823 0.094224125 0.10006193 -0.012493616 0.12479277
0.1759582 -0.043892536 -0.089893766 -0.11832543 -0.100983255 0.06857638 0.016649006 -0.01381273
0.13781637 -0.023934431 -0.02810611 -0.11549914 0.08000863 -0.07471392 0.024618253 -0.14654805
-0.11874014 0.06704823 0.08750054 0.008218607 -0.027116515 0.037727147 0.03286708 0.05125194
-0.030312365 -0.056600757 0.029966881 -0.09308892 0.12453143 -0.08324939 -0.02891364 -0.053404056
-0.07946407 0.2472626 -0.103557326 0.21329592 -0.07955128 -0.20574331 -0.12771338 0.11958767
0.07919378 0.02701391 0.069937386 -0.012124766 0.21515758 0.023609918 0.12928817 0.01233251
-0.04032754 0.18974939 -0.14949815 -0.08735772 0.077697076 0.010649907 -0.12637824 -0.019956896
-0.06254852 -0.02225758 -0.002737022 -0.067921534 0.09230734 -0.032980215 0.109073274 0.021349931
0.21308951 0.1202217 0.2090122 0.10419134 0.038711976 0.07688957 0.031840753 0.11971919
0.19952717 -0.20663646 -0.1709727 0.11241737 0.16871245 0.10610533 -0.120591596 -0.03860962
0.05781607 -0.0012370573 0.19720031 0.15158288 0.07055335 0.15104668 0.09504252 -0.035851635
-0.084766075 -0.047209453 0.010096768 -0.08642205 0.004390741 -0.15129083 -0.004730222 0.073992945
-0.18261455 -0.040470447 -0.035297573 0.18433094 0.11575146 -0.112666495 -0.08120618 0.04968916
-0.11125036 -0.17202541 -0.00717979 0.18550715 0.07146369 -0.00012876559 -0.005223876 0.1926276
0.125615 0.18253033 -0.061696336 -0.1678342 0.14660624 -0.08890428 -0.07353407 -0.18876225
0.25582388 0.07023119 0.095834315 0.1419401 -0.08138211 0.093782336 0.11519568 -0.018911272
-0.1987299 0.072614186 -0.13434634 0.13623719 0.20024732 0.048407648 0.06720462 -0.040387057
-0.1303097 0.09450042 0.17331871 0.06689261 -0.11006185 -0.119432956 0.20225489 0.29457468
0.24011552 0.05446291 -0.035928674 -0.1418756 0.24033864 -0.08624425 0.026553733 0.12633811
0.04998335 0.021361202 -0.117940165 0.07965528 0.16075355 0.23044793 0.03745255 0.1731857
0.24141414 -0.12636541 0.110147074 -0.08666281 -0.05141041 0.1993748 0.20145018 -0.047426242
0.16219184 0.2532521 0.15081011 -0.11590449 -0.13181368 0.018002426 0.028506905 -0.1308882
-0.04718848 -0.007476855 0.29284373 0.29309705 0.079759814 -0.0013722462 0.18235669 0.2340928
-0.048559297 0.16155072 0.062014937 -0.11774431 0.14136302 0.274683 0.0020361799 -0.061149668
0.0027555113 0.19007258 0.080573626 0.03722338 -0.06397906 0.003280678 0.12497629 -0.13623881
0.023058688 -0.023666644 0.0074183284 0.09298993 0.1294591 0.09388619 0.05256549 0.17457163
0.15665367 -0.047936928 0.11731197 -0.09285586 0.0012274557 -0.052379474 0.22353563 0.24771968
-0.0368787 -0.084874675 0.06688801 0.104421645 0.04894642 -0.08088488 0.13095817 0.19096
0.258553 -0.15767859 0.20110056 0.09760323 0.16579123 0.18437771 0.058070354 -0.136418
0.08191574 -0.14026153 -0.1421074 0.038924504 0.12494816 -0.19114679 -0.038463373 0.058127023
0.1870702 -0.023398843 0.07699638 0.2244128 -0.21324028 0.24632974 -0.17806214 -0.024245363

net.8.bias f4 [32]
00000000: 8591 593d 7f5f a53d 8f12 0a3e bbac 693e
00000010: 92af 353e 5c09 a73c e4fe 653d 4e6a 54bb
00000020: fbd1 313d 8608 9f3d ad68 383d 324c 573d
00000030: b70a f93d 0ea4 c13d 88ad 283d 4bba da3d
00000040: b391 5b3d c79d 283d a73c 8e3c 3d65 55bd
00000050: ac51 2f3d 0d12 fd3c 8492 893c 6692 2bbd
00000060: c12c 2e3e 3f0f 8c3d e2cd 963c e8a6 0ebd
00000070: 99f5 1e3d 7c53 3c39 7d05 20be e816 88bc
0.053117294 0.08074855 0.13483642 0.22819798 0.17742756 0.020390205 0.056151286 -0.0032411995
0.043413144 0.077652976 0.0450217 0.0525629 0.12160247 0.09455119 0.041181117 0.10680064
0.053605746 0.041166093 0.017362906 -0.0520985 0.042802498 0.030892396 0.016793497 -0.041887663
0.1700926 0.068388455 0.01840872 -0.034827143 0.03880844 0.00017960178 -0.15627094 -0.016612485

net.11.weight f4 [5, 32]
00000000: 056b 22be 2cad 8ebe 97a1 793e e741 9c3d
00000010: dbbf a1be 5ac0 6fbe 5fa5 3d3e d1d0 91bd
00000020: 9544 983e 7632 a6bc e317 2c3e c653 61be
00000030: bc02 98be 36bd 82be 3459 8bbe 2234 19be
00000040: 72c3 26be 71b6 86be cab4 96be e092 1c3d
00000050: ecb0 1bbe 6599 b5bd cefe 92be e4b5 773e
00000060: 2aac 9f3e 1e39 67be 6d6c 0a3e ebf3 2ebe
00000070: d31d 55be 805b 9bbb 4ac2 73bd 1bf2 1c3e
00000080: cf53 803d 039e 813e 0946 43be 91fa 373e
00000090: 4daf 243e ab02 a1be 0586 27be 7f1a 623e
000000a0: 7eb9 9cbd 1179 39be 5ced 74be c459 7d3e
000000b0: e81c 533e 8c4d 85be 5f60 3d3e 0d4a 8cbe
000000c0: f4ef 403e 2fa5 8ebe 13d2 db3d 9d96 42bd
000000d0: dd18 683e f674 06be 246b f5bd bdb5 4dbe
000000e0: bf2d f9bd c8f5 ebbd 818e 133e c3fe 88be
000000f0: 8354 39be c46b 23bd c79e 42bc f3ce 50be
00000100: ee31 62be da23 1bbe 4055 823e 3301 9d3e
00000110: 5f4a 5d3e 225d 8abe 1dd1 68be de9d ccbd
00000120: 3737 63bb 1149 8e3e 9804 d1bd 48f2 68bd
00000130: a9f9 3b3e 1730 70be 6fc9 8bbe 627f 913d
00000140: 969f 013e 2729 8f3e 41b9 1cbe 27f6 ce3b
00000150: 50a7 7bbe 5a05 81be 7ef8 39be 12d4 89be
00000160: 0d9e c5bd cc3c 73be 09a6 83be f6a1 403d
00000170: f77f b4bd 1f65 22bc e21b 9bbd 9913 55be
00000180: 3685 4cbe 9269 5cbe 18d4 4a3e 1ea2 f0bd
00000190: 12ac e8bd ed50 f1bd ff7a 9cbe 9ca4 63be
000001a0: 73bf e7bd 33e0 44be 5e90 bf3d 5fe6 693e
000001b0: 2dbc 2fbe 0caa 013d 37a4 4bbe 1845 623e
000001c0: a963 50be 7f4d 303d 9e33 f13d fd80 fe3d
000001d0: b5b0 db3d bd42 b6bd cc81 d03d 18b7 3dbe
000001e0: d829 063d 2cb7 5f3d eee2 bb3d 3a35 803e
000001f0: 1a85 003e d97c 933e 48fc 19bd 5104 583e
00000200: 7e69 693e 206e 57bc fd2e 1abe 247a 34be
00000210: d711 0dbd 22d1 a23e d805 b1be 3464 173e
00000220: f55d b0be 8697 8bbe a291 593d ec2a 95bc
00000230: 099a 02be b4e8 253c e56e 0a3e bfee 12be
00000240: cb2c d93d d299 a6be 4809 c0bd dcef 0cbe
00000250: 3cdb e3bd bf96 703e 3420 953d e813 fc3d
00000260: c766 553e 1da7 113e 8b96 b0be a932 413e
00000270: 7738 563e a2a3 573c 9b92 80bd a70c 34be
-0.15861137 -0.27866495 0.24378048 0.076297574 -0.31591687 -0.2341322 0.18520115 -0.07119907
0.29739824 -0.020287734 0.16805987 -0.22004613 -0.29689586 -0.2553498 -0.27216494 -0.14961293
-0.16285494 -0.26311067 -0.29434806 0.03822601 -0.15204209 -0.08867148 -0.28710026 0.2419048
0.31186038 -0.22580382 0.13517924 -0.17085235 -0.20812158 -0.0047411323 -0.05951146 0.15326731
0.06265985 0.25315866 -0.19069685 0.17966677 0.16082497 -0.31447348 -0.16359718 0.2208042
-0.07652567 -0.1811259 -0.2391867 0.24741274 0.20616496 -0.26035726 0.18493794 -0.27400246
0.18841535 -0.278604 0.10733428 -0.047506917 0.22665735 -0.13130555 -0.11983326 -0.20088859
-0.121669285 -0.115214884 0.1440983 -0.26756868 -0.18098645 -0.039897695 -0.011878676 -0.20391445
-0.22089359 -0.15150395 0.25455666 0.30664977 0.21610402 -0.2702418 -0.2273602 -0.09991048
-0.0034670362 0.2779012 -0.10205954 -0.056871682 0.18356957 -0.23455845 -0.2730212 0.071043745
0.12658533 0.27961084 -0.15305044 0.0063159647 -0.24575543 -0.25199395 -0.18161198 -0.2691961
-0.096492864 -0.23753661 -0.25712612 0.047029458 -0.0881347 -0.009911804 -0.075736776 -0.20808257
-0.19972691 -0.21524647 0.1980747 -0.117496714 -0.11360945 -0.117830135 -0.3056259 -0.22230762
-0.11315813 -0.1922615 0.09353708 0.22841786 -0.17161627 0.03165631 -0.19886862 0.2209667
-0.20350517 0.043042656 0.11777423 0.12426946 0.107270636 -0.08899448 0.10181007 -0.18526876
0.03275475 0.054618046 0.09174143 0.2504061 0.12550774 0.2880619 -0.03759411 0.21095397
0.22794148 -0.013148814 -0.15056987 -0.17624718 -0.03444084 0.3180018 -0.3457477 0.14784318
-0.34446684 -0.2726404 0.053117402 -0.018208943 -0.12754072 0.0101262815 0.13518865 -0.14348887
0.10604247 -0.3253923 -0.0937677 -0.13763374 -0.111258 0.23495005 0.07281533 0.12308484
0.20839988 0.14223905 -0.34489855 0.18866982 0.20919977 0.013161572 -0.06277963 -0.17582951

net.11.bias f4 [5]
00000000: 7021 373e 071c 8f3c 3439 933d 4183 55be
00000010: c780 75be
0.17883849 0.01746942 0.07188645 -0.2085085 -0.23974906
